…
          weights='imagenet',\n","                                                input_shape=(300,300,3))\n","vgg16_model.summary()"],"execution_count":17,"outputs":[{"output_type":"stream","text":["Model: \"vgg16\"\n","_________________________________________________________________\n","Layer (type)                 Output Shape              Param #   \n","=================================================================\n","input_3 (InputLayer)         [(None, 300, 300, 3)]     0         \n","_________________________________________________________________\n","block1_conv1 (Conv2D)        (None, 300, 300, 64)      1792      \n","_________________________________________________________________\n","block1_conv2 (Conv2D)        (None, 300, 300, 64)      36928     \n","_________________________________________________________________\n","block1_pool (MaxPooling2D)   (None, 150, 150, 64)      0         \n","_________________________________________________________________\n","block2_conv1 (Conv2D)        (None, 150, 150, 128)     73856     \n","_________________________________________________________________\n","block2_conv2 (Conv2D)        (None, 150, 150, 128)     147584    \n","_________________________________________________________________\n","block2_pool (MaxPooling2D)   (None, 75, 75, 128)       0         \n","_________________________________________________________________\n","block3_conv1 (Conv2D)        (None, 75, 75, 256)       295168    \n","_________________________________________________________________\n","block3_conv2 (Conv2D)        (None, 75, 75, 256)       590080    \n","_________________________________________________________________\n","block3_conv3 (Conv2D)        (None, 75, 75, 256)       590080    \n","_________________________________________________________________\n","block3_pool (MaxPooling2D)   (None, 37, 37, 256)       0         \n","_________________________________________________________________\n","block4_conv1 (Conv2D)        (None, 37, 37, 512)       1180160   \n","_________________________________________________________________\n","block4_conv2 (Conv2D)        (None, 37, 37, 512)       2359808   \n","_________________________________________________________________\n","block4_conv3 (Conv2D)        (None, 37, 37, 512)       2359808   \n","_________________________________________________________________\n","block4_pool (MaxPooling2D)   (None, 18, 18, 512)       0         \n","_________________________________________________________________\n","block5_conv1 (Conv2D)        (None, 18, 18, 512)       2359808   \n","_________________________________________________________________\n","block5_conv2 (Conv2D)        (None, 18, 18, 512)       2359808   \n","_________________________________________________________________\n","block5_conv3 (Conv2D)        (None, 18, 18, 512)       2359808   \n","_________________________________________________________________\n","block5_pool (MaxPooling2D)   (None, 9, 9, 512)         0         \n","=================================================================\n","Total params: 14,714,688\n","Trainable params: 14,714,688\n","Non-trainable params: 0\n","_________________________________________________________________\n"],"name":"stdout"}]},{"cell_type":"markdown","metadata":{"id":"um7QIS4ce1-6","colab_type":"text"},"source":["Aplicamos la técnica de _Transfer Learning_ con e
…
","model.add(Dropout(0.4))\n","model.add(Dense(64))\n","model.add(Dense(8, activation='softmax'))\n","\n","\n","model.compile(loss='categorical_crossentropy', \n","              optimizer=SGD(0.001), \n","              metrics=['accuracy'])\n","\n","model.summary()"],"execution_count":18,"outputs":[{"output_type":"stream","text":["Model: \"sequential_3\"\n","_________________________________________________________________\n","Layer (type)                 Output Shape              Param #   \n","=================================================================\n","vgg16 (Model)                (None, 9, 9, 512)         14714688  \n","_________________________________________________________________\n","flatten_3 (Flatten)          (None, 41472)             0         \n","_________________________________________________________________\n","dense_12 (Dense)             (None, 256)               10617088  \n","_________________________________________________________________\n","activation_6 (Activation)    (None, 256)               0         \n","_________________________________________________________________\n","dropout_6 (Dropout)          (None, 256)               0         \n","_________________________________________________________________\n","dense_13 (Dense)             (None, 128)               32896     \n","_________________________________________________________________\n","activation_7 (Activation)    (None, 128)               0         \n","_________________________________________________________________\n","dropout_7 (Dropout)          (None, 128)               0         \n","_________________________________________________________________\n","dense_14 (Dense)             (None, 64)                8256      \n","_________________________________________________________________\n","dense_15 (Dense)             (None, 8)                 520       \n","=================================================================\n","Total params: 25,373,448\n","Trainable params: 25,373,448\n","Non-trainable params: 0\n","_________________________________________________________________\n"],"name":"stdout"}]},{"cell_type":"markdown","metadata":{"id":"wKHwhuTw72mY","colab_type":"text"},"source":["## Carga de los datos\n","\n","Se procede con la ca
…
